08 Day/mnist_cnn.pth (torch, 903721 bytes, 8 tensors)

conv1.weight f4 [32, 1, 3, 3]
0	0x3e84732e	0.25869125
1	0xbe66fd1f	-0.22557496
2	0x3e328ddd	0.17436929
3	0xbd63f56a	-0.055653967
4	0xbe2b4706	-0.16726312
5	0x3e0e04a4	0.13868958
6	0xbe9695d1	-0.29411176
7	0xbe8f4451	-0.2798181
8	0x3d11a58e	0.035558276
9	0x3eb6114e	0.35560077
10	0x3deac65c	0.11463615
11	0x3da3e7e6	0.080032155
12	0x3eba96da	0.36443216
13	0x3d7bda34	0.06148739
14	0x3d212e50	0.039350808
15	0x3e8f06c4	0.2793485
16	0x3e8eff6f	0.27929255
17	0xbe1e8499	-0.1548027
18	0xbd41a5bc	-0.047277197
19	0xbe548a05	-0.20755775
20	0xbe49083c	-0.19632047
21	0xbe0d0f16	-0.13775286
22	0x3d070b1c	0.03296958
23	0x3da10cd2	0.078637734
24	0x3eeebb49	0.46627262
25	0x3da6ee22	0.08150889
26	0x3ddc4a8c	0.10756406
27	0x3f0273af	0.5095777
28	0xbea434a7	-0.3207142
29	0xbf314b08	-0.69255114
30	0x3ea6410f	0.3247151
31	0x3ed9bd34	0.42527163
32	0x3de9da72	0.11418618
33	0xbe08a905	-0.13345726
34	0x3e9fcbad	0.3121008
35	0x3e83fd15	0.25779024
36	0xbe9c751e	-0.30558103
37	0x3e4eaf75	0.20184119
38	0x3e822988	0.2542231
39	0xbe2d0b7f	-0.16898917
40	0x3e95c236	0.29249734
41	0x3d9bec5f	0.076134436
42	0x3e49ec6e	0.19719097
43	0x3e0fa67a	0.1402835
44	0x3d1c2711	0.038123194
45	0xbde87fe1	-0.11352516
46	0x3e9283df	0.28616235
47	0x3e2faa07	0.17154704
48	0xbd3f703c	-0.046737894
49	0x3e8ba7c8	0.27276444
50	0xbeacd654	-0.3375727
51	0x3e8d4c38	0.27597213
52	0xbe03f92c	-0.1288802
53	0x3e85d315	0.26137605
54	0x3d97a9fd	0.074054696
55	0xbd56d059	-0.05244479
56	0x3d2008ad	0.039070774
57	0xbcb39412	-0.021921191
58	0xbe942684	-0.28935635
59	0xbe9f3ca3	-0.3110095
60	0xbd9f8dcb	-0.07790717
61	0xbd870497	-0.06592672
62	0x3ec525f6	0.38505524
63	0x3ea2d6aa	0.318044
64	0xbe1eb1a8	-0.15497458
65	0xbe9423cf	-0.2893357
66	0xbe35f458	-0.17768991
67	0xbe908a5f	-0.2823057
68	0x3e23685d	0.1595778
69	0x3e712e9c	0.23552936
70	0xbea73914	-0.32660735
71	0xbd87b159	-0.06625623
72	0x3e68297c	0.22672075
73	0x3e475624	0.19466454
74	0x3e12540c	0.14289874
75	0xbe5a6417	-0.21327244
76	0xbda3baa9	-0.07994587
77	0xbe69b24d	-0.22821923
78	0xbdb3c93c	-0.08778617
79	0xbdf4d823	-0.11955287
80	0xbe949e0e	-0.29026836
81	0xbe79df16	-0.24401507
82	0xbea40fe0	-0.32043362
83	0xbee1f20f	-0.4412999
84	0x3ea3e619	0.32011488
85	0x3e2b8c3a	0.16752711
86	0x3ea1512b	0.3150724
87	0xbde8584a	-0.11344965
88	0x3e550519	0.20802726
89	0x3d79791e	0.060906522
90	0xbdd830a4	-0.105561525
91	0xbe966935	-0.29377142
92	0xbe46191b	-0.19345514
93	0xbe6face9	-0.23405804
94	0xbe5b2d99	-0.21404113
95	0x3d951073	0.07278528
96	0xbda4eec7	-0.08053356
97	0xbe28b243	-0.16474251
98	0x3ca13b70	0.019681662
99	0xbec5ded2	-0.3864656
100	0xbe788f85	-0.24273498
101	0x3e8eb5a9	0.2787297
102	0xbda99140	-0.08279657
103	0x3e266b8d	0.16251965
104	0x3eab81a0	0.33497334
105	0x3e3b722b	0.1830527
106	0xbdfc328e	-0.1231433
107	0x3e23030f	0.15919136
108	0x3e4c9f55	0.19982655
109	0xbe50d1be	-0.2039251
110	0x3ed89caa	0.42307025
111	0x3eb76139	0.35816363
112	0x3e3272a6	0.17426547
113	0xbeb5b18e	-0.35487026
114	0xbe6b0c53	-0.2295392
115	0x3ca06ebb	0.01958405
116	0xbe0d0541	-0.13771535
117	0x3d0ea35c	0.03482376
118	0xbe7240dd	-0.23657556
119	0xbdc8009e	-0.09765743
120	0xbd4e3e3b	-0.050352316
121	0x3de0c6bb	0.10975405
122	0xbde757ac	-0.11296019
123	0xbd0fa2d0	-0.03506738
124	0xbd54b679	-0.051931832
125	0x3df853c6	0.121253535
126	0x3ed71429	0.42007568
127	0xbd78b82d	-0.06072252
128	0xbd319678	-0.04335639
129	0x3e990602	0.29887396
130	0xbe3def48	-0.1854831
131	0xbea4ef41	-0.32213786
132	0xbd145aa3	-0.03621925
133	0x3e45fe67	0.19335328
134	0x3d7f34f2	0.062306352
135	0xbe53bb09	-0.20676817
136	0xbf1afc10	-0.60540867
137	0x3d64cd00	0.055859566
138	0x3efd8110	0.4951253
139	0x3ea4ebd9	0.32211187
140	0xbddacbd2	-0.10683407
141	0xbe5a7951	-0.21335341
142	0x3ea1396d	0.31489125
143	0xbd0e7bb3	-0.034785938
144	0x3e2ef88a	0.17086998
145	0xbe5aa951	-0.21353652
146	0xbe040d33	-0.1289566
147	0xbe2ebdaf	-0.17064546
148	0xbe539eb3	-0.20666008
149	0x3e554480	0.20826912
150	0x3ecfc3eb	0.4057916
151	0xbd1ebddf	-0.038755294
152	0x3e930495	0.28714433
153	0xbe4e4add	-0.20145746
154	0xbeb05b76	-0.3444478
155	0x3e8ec314	0.27883208
156	0x3e817ee1	0.25292113
157	0xbe9d4d6a	-0.30723125
158	0xbe548b15	-0.2075618
159	0x3e5d6942	0.21622184
160	0x3e530a67	0.20609437
161	0x3e031b15	0.128033
162	0xbe89c94b	-0.26911387
163	0x3e06b6c0	0.13155651
164	0x3d7dd981	0.061975006
165	0xbe88ba3f	-0.26704594
166	0x3ebc5817	0.36785957
167	0x3cb449cf	0.02200785
168	0x3e33c529	0.1755568
169	0x3eb38b0f	0.3506703
170	0xbed63923	-0.41840467
171	0x3eb7402c	0.35791147
172	0x3eac2a67	0.336261
173	0x3f184898	0.5948577
174	0x3e6f845d	0.23390336
175	0x3e366854	0.17813236
176	0xbea4f3df	-0.3221731
177	0xbee2cf58	-0.44298816
178	0xbed96e00	-0.42466736
179	0xbf0c0f13	-0.547105
180	0x3e66cef9	0.22539891
181	0xbe8c2ed3	-0.27379474
182	0xbe993d53	-0.299296
183	0x3eaab3ee	0.333404
184	0xbe526830	-0.20547557
185	0x3ed5a0ba	0.41724187
186	0xbe4d0153	-0.20020036
187	0xbe0936cf	-0.13399814
188	0x3df7af5e	0.120939955
189	0xbe85fdf6	-0.2617032
190	0xbeb93c4d	-0.36178818
191	0x3c37ffa8	0.011230387
192	0xbe21216a	-0.15735403
193	0x3d470191	0.04858548
194	0x3efed7c5	0.49773994
195	0xbe4c965e	-0.19979236
196	0x3f06dbf6	0.52679384
197	0xbd352e36	-0.044233523
198	0xbe4e7adb	-0.20164053
199	0xbe850632	-0.2598129
200	0x3e6da4e8	0.23207438
201	0x3eb5ed5d	0.35532656
202	0x3e158037	0.14599691
203	0xbe4214ec	-0.18953294
204	0x3ee511a3	0.44740018
205	0xbe78c777	-0.2429484
206	0xbecf9420	-0.40542698
207	0xbe5624da	-0.20912495
208	0xbe9bd536	-0.30436105
209	0xbe92acbd	-0.28647414
210	0xbe59d5ed	-0.21273012
211	0x3d1bef2d	0.038069893
212	0xbcdad3c7	-0.026712311
213	0x3e37f53d	0.17964645
214	0x3e9dc13e	0.30811495
215	0x3e713158	0.2355398
216	0x3e956c41	0.29184154
217	0x3d3c78e9	0.046013746
218	0x3dcab2d1	0.09897388
219	0xbe701e66	-0.23449096
220	0xbc83cf3f	-0.016090034
221	0x3ec1889d	0.3779954
222	0xbe8b47f3	-0.2720333
223	0xbe847874	-0.25873148
224	0x3ec02390	0.37527132
225	0x3eb76a11	0.3582311
226	0x3e98e55c	0.29862487
227	0x3e6874a5	0.22700746
228	0x3e0a2bee	0.1349332
229	0x3da18db0	0.07888353
230	0xbd5937ce	-0.053031735
231	0xbe156562	-0.14589456
232	0x3edea243	0.4348317
233	0x3ed1cf6b	0.4097856
234	0xbdea4417	-0.11438768
235	0x3ed2239c	0.41042793
236	0xbdb05ab5	-0.08611051
237	0x3e47a928	0.19498122
238	0x3e6de402	0.2323151
239	0xbee589e6	-0.4483177
240	0x3ed0df38	0.40795302
241	0xbe01c8a8	-0.126742
242	0xbe3eabe5	-0.1862026
243	0x3e6618d7	0.22470413
244	0xbcff3d69	-0.031157212
245	0x3cef69cd	0.029225254
246	0x3e91d240	0.2848072
247	0x3eec057c	0.46097934
248	0x3ee7be46	0.45262355
249	0xbf1bff96	-0.6093687
250	0xbee6144d	-0.44937363
251	0x3d0fbc48	0.03509167
252	0xbe28d3df	-0.16487072
253	0xbe4025c5	-0.18764408
254	0x3e91ef83	0.28503045
255	0xbe3f31a9	-0.18671288

conv1.bias f4 [32]
0	0xbe99c5bc	-0.30033672
1	0xbd914477	-0.07093137
2	0x3e12333a	0.14277354
3	0xbe462a0e	-0.1935198
4	0xbd279e6e	-0.040922575
5	0x3e2dde4a	0.16979328
6	0xbe1ebfae	-0.15502807
7	0xbe8b100d	-0.27160683
8	0x3e202b54	0.15641528
9	0xbd8c25a6	-0.06843118
10	0xbe82c348	-0.25539613
11	0xbdd3f9f7	-0.103504114
12	0x3e6ccb76	0.23124489
13	0xbd9907a0	-0.074721575
14	0x3e6bc8c3	0.23025803
15	0xbe0ede90	-0.13952088
16	0x3e5203b9	0.20509233
17	0xbd1694fc	-0.036763176
18	0xbd4401a4	-0.047853127
19	0xbd68dd5e	-0.056851737
20	0xbd3b60d6	-0.045746647
21	0xbd98ce23	-0.074611925
22	0xbe235832	-0.15951613
23	0xbe9c202e	-0.304933
24	0x3d7caa55	0.06168588
25	0x3e55bebc	0.2087354
26	0x3e5061ed	0.20349856
27	0xbe4f8e4d	-0.20269127
28	0x3e476b48	0.19474518
29	0xbe70fca0	-0.23533869
30	0x3da0640e	0.07831584
31	0xbe3289ec	-0.17435426

conv2.weight f4 [64, 32, 3, 3]
0	0x3ddb8957	0.10719555
1	0x3d0950ff	0.03352451
2	0x3cc595fd	0.024119372
3	0xbd1ff0e6	-0.039048098
4	0x3cb55398	0.022134587
5	0x3d004501	0.031315807
6	0x3ccb1d25	0.02479417
7	0x3cfc0fc5	0.030769238
8	0xbd444474	-0.047916844
9	0x3cfe3503	0.031031137
10	0x3d4fbd88	0.05071786
11	0x3dfdfb22	0.124014154
12	0xbe5370cc	-0.20648497
13	0xbdee46fb	-0.11634632
14	0xbdd807ee	-0.105483875
15	0xbdda51b3	-0.10660114
16	0xbdc7235a	-0.0972354
17	0x3b5ff7ac	0.0034174724
18	0xbdb6b330	-0.08920896
19	0xbde10fa1	-0.10989309
20	0xbd8e23c3	-0.06940415
21	0xbdc7abb1	-0.097495444
22	0x3b8a040b	0.0042119077
23	0xbcdc6382	-0.026902918
24	0xbcaf0b50	-0.021367699
25	0xbd43f560	-0.04784143
26	0xbb635f16	-0.0034694127
27	0x3dda2077	0.106507234
28	0xbda12d78	-0.078700006
29	0xbe3a64c4	-0.18202502
30	0xbe1cc3d5	-0.15309079
31	0xbe1c4716	-0.15261492
32	0xbe045a0a	-0.12924972
33	0xbe58b898	-0.21164167
34	0xbdf4a053	-0.11944642
35	0x3c3e4541	0.011613191
36	0xbd0b4d88	-0.034009486
37	0x3e32f6d9	0.17476977
38	0xbe5f8612	-0.21828488
39	0xbe62cf92	-0.22149494
40	0xbdf42c11	-0.119224675
41	0x3d454fec	0.048171923
42	0xbdc2719d	-0.09494326
43	0x3dd4b047	0.10385185
44	0x3d9cd062	0.07656933
45	0xbd19b5f7	-0.03752705
46	0x3d91be16	0.07116334
47	0x3c7ab6d9	0.015302383
48	0xbe1c2133	-0.1524704
49	0xbe29c4ce	-0.16578981
50	0xbb91bce6	-0.0044475673
51	0xbe1ed874	-0.15512258
52	0xbc7f51a8	-0.015583433
53	0xbc1e4bcf	-0.009661629
54	0xbcf1db54	-0.02952353
55	0xbd9cc4b2	-0.07654704
56	0x3c9a21c5	0.01881493
57	0x3bbdb9cb	0.0057899705
58	0x3cca9583	0.024729496
59	0x3ce6b5af	0.028162805
60	0x3d3bc462	0.045841582
61	0xbd2c6139	-0.042084906
62	0xbd4b0afc	-0.049571022
63	0x3c0d7d0e	0.008635772
64	0xbd9465de	-0.07245992
65	0x3de512f0	0.11185253
66	0x3c800a66	0.015629958
67	0x3cd177e1	0.025569858
68	0xbcaa51e3	-0.020791
69	0xbd6944ad	-0.05695026
70	0xbd33c90d	-0.04389291
71	0xbd292e34	-0.04130383
72	0x3d496e52	0.049177475
73	0x3bd2073a	0.006409553
74	0xbccc5d60	-0.024946868
75	0x3d7733c3	0.0603521
76	0x3d435d8f	0.047696646
77	0xbd863728	-0.06553489
78	0x3c80e9ac	0.015736423
79	0x3d0c0fd3	0.03419478
80	0x3c4b34a2	0.012402685
81	0x3d3a3962	0.04546488
82	0xbd12104b	-0.03566007
83	0xbe90b683	-0.28264245
84	0xbd517810	-0.05113989
85	0x3daf54a5	0.085610665
86	0x3d963d80	0.07335949
87	0xbca0413c	-0.019562356
88	0xbd30deb1	-0.043181125
89	0xbcf8ba90	-0.030362397
90	0xbd38c346	-0.045108102
91	0xbd2d98da	-0.0423821
92	0x3c7b0f4f	0.015323474
93	0x3aacfff7	0.0013198842
94	0xbd4c137a	-0.04982326
95	0x3d0c3a4d	0.034235287
96	0xbd02a804	-0.031898513
97	0x3d62dbda	0.055385448
98	0xbcd384d9	-0.025820183
99	0x3cd4d089	0.025978344
100	0x3d67319c	0.056443796
101	0xbe255107	-0.1614419
102	0xbe293c1c	-0.16526836
103	0xbe4ff05a	-0.2030653
104	0x3da90428	0.08252746
105	0xbd333bca	-0.04375819
106	0x3c6efe1b	0.014586951
107	0xbd3b167f	-0.04567575
108	0x3d2d720a	0.042345084
109	0x3df8180c	0.121139616
110	0x3dc96bbd	0.098350026
111	0xbb9928d0	-0.0046740547
112	0xbdc9e7be	-0.098586544
113	0xbe6bbe39	-0.23021783
114	0xbe0dfea8	-0.13866675
115	0xbd8d28ed	-0.068925716
116	0xbc73673b	-0.014856155
117	0xbd614e79	-0.055006478
118	0xbdb37318	-0.08762187
119	0xbb538068	-0.003227258
120	0x3cea888d	0.028629566
121	0x3b247ed9	0.002510002
122	0xbcb42dfc	-0.021994583
123	0xbd4f20a6	-0.050568245
124	0xbd31939f	-0.043353673
125	0xbd81f1ef	-0.06344973
126	0x3df3bfa3	0.11901786
127	0x3e2b161a	0.1670765
128	0x3dfe2c19	0.12410755
129	0xbdf44622	-0.11927439
130	0xbd52419d	-0.051332105
131	0xbdf98157	-0.12182873
132	0xbe3ad52d	-0.18245383
133	0xbe0edafc	-0.13950723
134	0xbcfefe39	-0.031127082
135	0x3d5ccdfe	0.053907387
136	0xbd917ac0	-0.07103491
137	0xbe99068b	-0.29887804
138	0xbe32bb34	-0.17454225
139	0xbde616ec	-0.11234841
140	0x3d3455f2	0.044027276
141	0xbe3173d8	-0.17329347
142	0xbdc8b61a	-0.09800358
143	0x3c0fffe9	0.008789041
144	0xbdd7412f	-0.1051048
145	0xbe29d545	-0.16585262
146	0xbbc023be	-0.005863636
147	0xbdae7a9e	-0.08519481
148	0x3b44b1e2	0.0030013253
149	0xbd50cad9	-0.0509747
150	0xbd7531de	-0.05986201
151	0xbda11668	-0.07865602
152	0xbc225d17	-0.00990989
153	0xbba3e273	-0.00500136
154	0x3a9bbbbc	0.0011881511
155	0xbde53461	-0.11191631
156	0xbbc24e71	-0.005929761
157	0xbc0c654b	-0.008569072
158	0x3d459430	0.048237026
159	0xbd9fec1e	-0.07808708
160	0xbd3a4d3c	-0.045483813
161	0xbd070359	-0.032962177
162	0xbd1504f8	-0.03638169
163	0x3e17a1c1	0.14807798
164	0xbe1dad1c	-0.15398067
165	0xbe913ab6	-0.28365105
166	0xbd99a3ef	-0.07501971
167	0x3de3d795	0.111251034
168	0xbe0f3501	-0.13985063
169	0xbca1d8a7	-0.019756628
170	0xbc98541c	-0.018594794
171	0x3e32aff9	0.1744994
172	0x3e28f990	0.1650145
173	0x3db02ac2	0.086019054
174	0x3cbb51a9	0.022866087
175	0x3ac2c426	0.0014859482
176	0xbe7364f5	-0.23768981
177	0xbe627f8a	-0.22118965
178	0xbd223ee3	-0.039610755
179	0x3daa9c66	0.08330612
180	0x3e777f7e	0.24169728
181	0x3cf76575	0.030199746
182	0xbc000476	-0.007813564
183	0xbe2f03de	-0.17091319
184	0xbb84e367	-0.004055429
185	0x3cc483ff	0.023988722
186	0xbe0c9243	-0.1372767
187	0xbca75edd	-0.020430977
188	0xbccd7680	-0.02508092
189	0x3d46b7c5	0.0485151
190	0xbc1aa355	-0.009438355
191	0xbe0de555	-0.13857014
192	0xbe23b407	-0.15986644
193	0xbcdf74e7	-0.027277423
194	0x3cd9082d	0.026493156
195	0x3c2f410c	0.010696661
196	0x3d28de6a	0.041227736
197	0xbd17043f	-0.036869284
198	0xbdbc3fcb	-0.09191855
199	0x3d92f203	0.07175066
200	0x3d483b1f	0.048884507
201	0xbe2a60bd	-0.16638465
202	0xbe764a29	-0.24051727
203	0xbe095c41	-0.13414098
204	0xbdaa1c1c	-0.08306143
205	0xbdc19be6	-0.094535634
206	0xbdb6205e	-0.08892892
207	0xbd8baf31	-0.068205245
208	0xbdd8da98	-0.105885684
209	0xbe36fb52	-0.17869309
210	0xbbdbb56f	-0.006704978
211	0x3e254b4c	0.16142005
212	0x3de27d4e	0.11059056
213	0xbd07c0ea	-0.03314296
214	0x3ceb82d3	0.028748905
215	0xbca1481a	-0.019687701
216	0x3de39af7	0.111135416
217	0xbdd508e7	-0.104020886
218	0xbd8fe5ff	-0.0702629
219	0xbde84b49	-0.113424845
220	0xbda929bc	-0.08259913
221	0xbdce1be2	-0.10063912
222	0xbe29b173	-0.16571598
223	0x3d4a4e2c	0.049390957
224	0x3c3ee1b9	0.011650496
225	0x3db6e2f0	0.08930004
226	0xbd05c188	-0.03265527
227	0xbc9de1d8	-0.01927273
228	0xbe4fb389	-0.20283331
229	0xbe51689e	-0.20450065
230	0xbe0d26e0	-0.13784361
231	0xbe024c24	-0.12724358
232	0xbd5eb9f5	-0.05437656
233	0x3d7b1588	0.06129983
234	0x3cce5bda	0.025190283
235	0x3c99e4fd	0.018785948
236	0x3e20f381	0.1571789
237	0xbe1c634a	-0.15272251
238	0xbdd5d748	-0.10441452
239	0xbdb48803	-0.08815005
240	0xbdec4e26	-0.11538343
241	0xbe14f5bf	-0.1454687
242	0x3cb6d6b2	0.022319172
243	0x3e55507a	0.2083148
244	0x3d16da97	0.036829557
245	0xbda7bd64	-0.0819042
246	0xbdecf498	-0.1157009
247	0xbe34fe2b	-0.17675082
248	0xbe649c48	-0.22325242
249	0xbe16dadb	-0.14731924
250	0x3df37336	0.11887209
251	0x3d8ed0c1	0.069734104
252	0xbd226e97	-0.039656248
253	0x3b5796d1	0.003289629
254	0xbbe07b8f	-0.006850667
255	0x3d192877	0.037392106

conv2.bias f4 [64]
0	0xbd5ca72a	-0.053870358
1	0x3ce76684	0.028247125
2	0x3cc7c5a1	0.024386229
3	0x3c14e41a	0.009087587
4	0x3bc941cc	0.006141877
5	0xbd9bb43a	-0.07602735
6	0xbd514760	-0.05109346
7	0xbc27ed69	-0.010249474
8	0x3d57c7d5	0.05268081
9	0xbd1dadcc	-0.038495824
10	0xbca98cfa	-0.020697106
11	0x3c38a952	0.011270838
12	0xbd1a8d91	-0.037732664
13	0x3d1cb65c	0.03825985
14	0xbbb28e48	-0.00544909
15	0xbd755fe3	-0.059905898
16	0xbd2c5f16	-0.04208287
17	0xbcd14080	-0.025543451
18	0xbd5da19d	-0.054109205
19	0xbd40ad5d	-0.047040332
20	0xbdc02044	-0.09381154
21	0xbd5116e8	-0.051047236
22	0xbca49253	-0.020089304
23	0xbd56a101	-0.05239964
24	0xbd28dc23	-0.041225564
25	0xbd81c485	-0.06336311
26	0x3c0c94b7	0.008580378
27	0x3d1ef394	0.038806513
28	0x3c40c1ec	0.011764985
29	0xbd9e89c9	-0.07741124
30	0xbd77bf4a	-0.06048516
31	0xbd339f5c	-0.04385315
32	0xbc545bd9	-0.012961351
33	0x3bb23968	0.0054389723
34	0xba10a979	-0.00055184175
35	0x3d095ee6	0.033537768
36	0xbdca4b54	-0.09877649
37	0xbd27f048	-0.041000634
38	0xbd134d98	-0.03596267
39	0xbc8d5d3d	-0.017256374
40	0xbd34ba9b	-0.044123273
41	0xbc87c9ed	-0.016575778
42	0xbd72cf1d	-0.05927955
43	0xbd208281	-0.03918696
44	0xbd3ae8bf	-0.04563212
45	0x3d5f9aa1	0.054590825
46	0x39ee0b76	0.00045403437
47	0xbd62b87b	-0.055351716
48	0x3c88dd13	0.016706979
49	0xbd4ef1b8	-0.05052349
50	0xbad7f412	-0.0016475937
51	0xbda187f6	-0.078872606
52	0xbd973083	-0.073823
53	0xbd154b23	-0.03644861
54	0x3d0b7c49	0.034054074
55	0xbc418a4e	-0.01181276
56	0xbd5e2f4a	-0.054244317
57	0x3cd2db2f	0.02573928
58	0xbd7b4e46	-0.061353944
59	0x3c0fef2e	0.008785052
60	0x3d0366e0	0.03208053
61	0xbca1b05a	-0.019737411
62	0xbdb42d85	-0.08797745
63	0xbc61f491	-0.013791219

fc1.weight f4 [128, 1600]
0	0x3c86c30e	0.016450431
1	0x3c324b19	0.0108821625
2	0xbc8401f9	-0.016114222
3	0xbab00d14	-0.0013431632
4	0xbcf3a935	-0.02974377
5	0xbcd88956	-0.026432674
6	0xbc90dc71	-0.01768324
7	0xbc93a4c8	-0.01802291
8	0xbc9e745c	-0.019342594
9	0xbce7d84f	-0.028301386
10	0x3a81d70f	0.0009906011
11	0x3bc0a4ad	0.005879006
12	0x3c14bbbd	0.009077963
13	0x385f1e4f	5.319557e-05
14	0x3c581913	0.013189572
15	0xbc93211f	-0.01796013
16	0x3c2db1a7	0.010601438
17	0xbc1ba7b6	-0.009500435
18	0x3c11e4f7	0.008904687
19	0x3b24b2f3	0.0025131076
20	0xbc0a6ecd	-0.0084492685
21	0xbcf39eb7	-0.029738767
22	0xbccc95e9	-0.024973826
23	0xbc853653	-0.016261255
24	0xbabdf64f	-0.0014492961
25	0xbcea02df	-0.028565822
26	0xbb1609ed	-0.00228941
27	0x3c1356e2	0.008992882
28	0xb9bbbfd1	-0.00035810334
29	0x3c2e8d1c	0.01065376
30	0x3c733d46	0.014846152
31	0xbc539b64	-0.012915466
32	0x3c8b6149	0.017014163
33	0xbcb2ac49	-0.021810668
34	0xbc22a7cd	-0.009927702
35	0xbc9d2d17	-0.01918654
36	0xbc4c290d	-0.012460959
37	0x3b54b2b6	0.0032455153
38	0x3bcce7fa	0.0062532397
39	0xbb3d9d17	-0.0028932744
40	0xbce8f5be	-0.028437492
41	0xbae5af45	-0.0017523548
42	0xbc65c892	-0.0140248705
43	0xbb8874d4	-0.0041643176
44	0xbc0db8cd	-0.008650017
45	0x3c3c5f16	0.01149728
46	0xbb90f191	-0.004423328
47	0xbcd3c105	-0.025848875
48	0x3bddef48	0.0067729093
49	0xbcfd6769	-0.030933099
50	0xbc79cedb	-0.015247072
51	0xbb813d91	-0.003944107
52	0xbc88c8ce	-0.016697314
53	0x3a5c31ea	0.0008399772
54	0xbccf7549	-0.02532448
55	0x3c61b195	0.013775249
56	0xbc789fdd	-0.015174833
57	0xbcc6f5b7	-0.024287088
58	0xbbd73bc3	-0.0065684034
59	0xbc340f3c	-0.01098996
60	0x3bf5e346	0.0075038997
61	0xbc9c9e10	-0.019118339
62	0x3c979704	0.018504627
63	0xbb7f0898	-0.0038915034
64	0x3b5c132a	0.0033580759
65	0x3c7e77f2	0.015531527
66	0xbbd628a0	-0.0065356046
67	0x3c6aef0d	0.014339221
68	0xbcd53ef1	-0.02603099
69	0xbcb0bccf	-0.021574406
70	0x3c429e89	0.011878618
71	0xbb4226be	-0.0029625143
72	0xbbd26b53	-0.0064214855
73	0xbcaa25e7	-0.020770026
74	0xbbe118f4	-0.0068694297
75	0x39208c55	0.00015311067
76	0x3bf76020	0.007549301
77	0xbc0f0981	-0.008730293
78	0xbce6ca1d	-0.028172547
79	0xbbdd536f	-0.006754331
80	0xbc140713	-0.00903489
81	0xbc166d68	-0.009181358
82	0xbce45b49	-0.02787556
83	0xbc639f18	-0.013892911
84	0x3c9b07d0	0.018924624
85	0xbcb8d4d0	-0.022562414
86	0x3c7b38bc	0.015333351
87	0x3c78e47e	0.0151911955
88	0xbcf1df32	-0.029525373
89	0x3c0f7bee	0.0087575745
90	0xbc6e4561	-0.014542908
91	0x3b9fab16	0.00487269
92	0xbb401cce	-0.0029314044
93	0x3b8ef768	0.004362989
94	0xbc8be5ad	-0.017077291
95	0xbc28c025	-0.010299717
96	0xbc80df95	-0.015731612
97	0xbcb833f1	-0.022485705
98	0x3b2cef9b	0.0026387933
99	0x3c4a0a62	0.012331577
100	0xbcec7e00	-0.028868675
101	0xbcc9bd98	-0.024626538
102	0x3aab64c0	0.001307629
103	0x3b595c59	0.0033166616
104	0x3c13abfb	0.009013171
105	0x3b49d11f	0.0030794812
106	0x3c8ec4dd	0.017427856
107	0xbc68f98b	-0.014219652
108	0xbc650fa8	-0.0139807835
109	0xbcece57c	-0.02891802
110	0xbbb8410e	-0.0056229895
111	0xbb557fff	-0.0032577512
112	0xbc134af4	-0.008990038
113	0xbcb82592	-0.022478852
114	0xbc544a5f	-0.012957185
115	0xbce55e45	-0.027999053
116	0x3c48183c	0.012212809
117	0xbca7d2a8	-0.02048619
118	0xbba5095e	-0.005036517
119	0xbcf81b4f	-0.03028646
120	0xbcc1a5ce	-0.023638632
121	0xbc0ae6f0	-0.008477911
122	0xbbec0df4	-0.007203812
123	0xbb69cfd6	-0.0035676858
124	0x3c6b8a56	0.014376244
125	0x3b92f907	0.004485253
126	0x3be73625	0.007056015
127	0xbcf77617	-0.030207677
128	0xbc5a64bf	-0.013329684
129	0xbb7e3d5f	-0.0038793904
130	0xbc4a2c23	-0.012339625
131	0x3ba0deb1	0.0049093594
132	0xbcbfd6e1	-0.023417892
133	0xbc4b7ca1	-0.012419851
134	0x3c1d244d	0.009591174
135	0xbc94d217	-0.018166585
136	0xbc7976e7	-0.015226102
137	0xbb8e9d30	-0.0043522343
138	0xbc17e3d9	-0.009270632
139	0xbcc29ea5	-0.023757288
140	0x3a98800b	0.001163484
141	0x3a1205c6	0.00055703183
142	0x3c799c5b	0.015235032
143	0x3c52b0ad	0.012859506
144	0x3b848c40	0.0040450394
145	0x3bcbad57	0.006215732
146	0xbbdcc8d5	-0.006737808
147	0xbc88f923	-0.01672036
148	0xba961dd9	-0.0011452987
149	0x3c5874a7	0.013211406
150	0xbcfb0d29	-0.030645924
151	0x3c000f39	0.007816129
152	0xb8fef33a	-0.00012156968
153	0xbc3abd94	-0.011397738
154	0x3c95f4d9	0.018305229
155	0xbc2b5dd6	-0.010459384
156	0x3b48f353	0.003066261
157	0x3c0aeefe	0.008479832
158	0x3c30b32b	0.0107849045
159	0xbc93a388	-0.018022314
160	0xbb975b9e	-0.004619076
161	0xbbfe8f1d	-0.0077685253
162	0x3cafecb8	0.021475181
163	0x3c785f32	0.015159415
164	0x3c4bc98a	0.012438187
165	0xbb5cf128	-0.0033713076
166	0x3c691afe	0.014227627
167	0xbcfaf998	-0.030636594
168	0x3c89c1fe	0.016816135
169	0xbc3fb6a6	-0.011701262
170	0xbae45402	-0.0017420056
171	0x3c60d860	0.013723463
172	0x3b3eb2e8	0.0029098336
173	0x3c45f1ea	0.012081603
174	0xbb387d5d	-0.0028150894
175	0x3b409306	0.0029384508
176	0x3c58f86d	0.013242823
177	0x3c6be56f	0.014397963
178	0x3b4bdf93	0.0031108602
179	0x3c065fd7	0.008201561
180	0x3c82b87b	0.015957108
181	0xbca17e94	-0.019713677
182	0xbc5f6556	-0.013635
183	0x3c9ac457	0.01889245
184	0xbcdc005d	-0.026855642
185	0xbcc8b584	-0.024500616
186	0xbba04831	-0.0048914184
187	0xbacc19fd	-0.001557171
188	0x3afbb07f	0.001920238
189	0x3ccfe8a7	0.025379492
190	0xbbd2730f	-0.0064224075
191	0x3cdb076a	0.026736934
192	0x3c72c3dd	0.014817205
193	0xbcb2b3be	-0.021814223
194	0x3c6e42c8	0.014542289
195	0xba81e8a5	-0.0009911252
196	0xbc358e84	-0.011081342
197	0x3b6cffa1	0.003616311
198	0x3cee958e	0.029124048
199	0x3bd26336	0.0064205183
200	0xbc94d495	-0.018167773
201	0xbb436e58	-0.0029820409
202	0xbc80b428	-0.015710905
203	0xbc3cec8f	-0.011531009
204	0xbc70b410	-0.014691368
205	0x3b0f6625	0.0021880951
206	0x3c94747b	0.018121948
207	0xbc77317c	-0.015087482
208	0xb9d82c84	-0.00041231897
209	0xba58a375	-0.0008264103
210	0xbbe4b546	-0.0069796173
211	0xbbb61699	-0.005556893
212	0xbb87b0ae	-0.004140935
213	0xbc20a763	-0.009805533
214	0xbc942d4e	-0.01808801
215	0x3c234bea	0.00996683
216	0xbcbc09a0	-0.022953808
217	0xbc69fbe1	-0.014281244
218	0xbc21832e	-0.009857936
219	0xbb2350f5	-0.002492008
220	0x3c290f0a	0.010318527
221	0xbc25e0d0	-0.0101244
222	0x3af45d03	0.0018643442
223	0x3ba43d28	0.005012173
224	0xbbff0c37	-0.0077834385
225	0xbc98930e	-0.018624809
226	0x3ad2fd0b	0.0016097141
227	0xbc75282a	-0.014963189
228	0xbb5552ca	-0.0032550567
229	0x3bed7c96	0.007247518
230	0xbcbab52f	-0.022791473
231	0xbc995c38	-0.018720731
232	0x3c339644	0.010961119
233	0xbc90e03c	-0.017685048
234	0x3c955990	0.018231183
235	0xbcb6c023	-0.022308415
236	0xbcd97680	-0.026545763
237	0x3c9b8727	0.018985344
238	0x3c5dca0d	0.013536942
239	0xbcb785c9	-0.02240266
240	0xbcac9779	-0.021068322
241	0x3c2fb41e	0.010724096
242	0x3c5f5f09	0.013633498
243	0xbcd996a1	-0.026561083
244	0x3b9940fa	0.0046769353
245	0xbbba4620	-0.005684629
246	0x3c2ee0e4	0.010673735
247	0x3c29d1f0	0.010364994
248	0xbb0dec4a	-0.0021655732
249	0xbcb58f72	-0.022163127
250	0xbc9b3ff3	-0.018951392
251	0xbcdf2fbe	-0.027244445
252	0x3c61d03f	0.01378256
253	0xbce09718	-0.027415797
254	0xbc82f997	-0.015988154
255	0x3bb10047	0.0054016444

fc1.bias f4 [128]
0	0xbc3249eb	-0.010881881
1	0xbcb81507	-0.022470964
2	0xbc52016d	-0.012817723
3	0x3c77f8d2	0.015135007
4	0x3c3c7a41	0.011503757
5	0xbcc25c1d	-0.023725564
6	0xbcdb8ec3	-0.026801473
7	0xbd070da0	-0.03297198
8	0x3ca5d5f9	0.020243632
9	0xbc313152	-0.010814982
10	0xbcb0f379	-0.021600472
11	0xbc5f6a78	-0.013636224
12	0xbbb2ed2e	-0.005460403
13	0x3c6d27b3	0.014474797
14	0x3c691e66	0.014228439
15	0x3d02a45c	0.031895027
16	0x3bb4d86d	0.005518964
17	0x3b204d0c	0.0024459986
18	0x3a7e7aba	0.0009707619
19	0xbca6f1fb	-0.020379057
20	0xbc1ee192	-0.009697335
21	0x3c3b09ac	0.01141588
22	0xbd167eb6	-0.036741935
23	0xbc72aba1	-0.014811427
24	0xbb9d6fba	-0.0048045786
25	0x3ca50419	0.020143555
26	0x3b04ef55	0.0020284255
27	0xbb254ed4	-0.0025223987
28	0x3d1cc004	0.038269058
29	0x3c54b2e3	0.012982103
30	0xbc10aadd	-0.0088297995
31	0x3c486983	0.012232187
32	0x3ca61539	0.020273792
33	0x3ccee55e	0.025255855
34	0x3bf03c0f	0.0073313783
35	0x3ba26023	0.004955308
36	0x3c5f4d7b	0.013629313
37	0xbc9a7753	-0.018855726
38	0x3c8c5819	0.017131852
39	0x3c8bcd60	0.017065704
40	0x3c88af25	0.016685078
41	0x3d1f9308	0.03895858
42	0xbb5557da	-0.0032553584
43	0xbc2c4a8c	-0.01051582
44	0x3d2f6702	0.042822845
45	0x3c1894f6	0.009312859
46	0x3bd11403	0.0063805594
47	0xbc062505	-0.008187537
48	0x3c8d266f	0.01723024
49	0xbcb78427	-0.022401882
50	0xbb20a000	-0.002450943
51	0x3c4f548f	0.012654438
52	0x3b95caec	0.0045713093
53	0x3cb3328d	0.02187469
54	0xbc409c03	-0.011755946
55	0x3c975713	0.018474137
56	0x3c88f835	0.016719917
57	0xbcaaf698	-0.020869538
58	0xbba40328	-0.005005259
59	0x3d8f1472	0.069863215
60	0xbdb20f4d	-0.08694325
61	0x3bda5158	0.006662529
62	0x3c737cd7	0.014861307
63	0xbb091dff	-0.002092242
64	0xbc3b9286	-0.011448508
65	0xbce3de07	-0.027815832
66	0x3c6df465	0.0145236
67	0x3b9826bc	0.0046432894
68	0xbd9846ed	-0.07435403
69	0xbc3a7e83	-0.011382702
70	0xbc84712a	-0.016167242
71	0x3cb78943	0.022404319
72	0xbcd4e2db	-0.02598708
73	0x3cc87498	0.024469659
74	0xbb854372	-0.004066878
75	0x3b4cbc4d	0.0031240166
76	0xbc0e6bfd	-0.008692739
77	0xbd9a8fcd	-0.07546959
78	0xbc97c9df	-0.018528877
79	0xbc28dab5	-0.01030605
80	0xbcaece9d	-0.021338755
81	0xbc370b3a	-0.01117211
82	0xbcf9418a	-0.03042676
83	0x3c2b92b4	0.0104719885
84	0x3c3b8a83	0.011446598
85	0xbbaa05a1	-0.0051886593
86	0x3cb64d83	0.022253757
87	0xbc5f86df	-0.013642996
88	0xbc8978b0	-0.016781181
89	0xbd1bda9a	-0.03805027
90	0x3c012a21	0.0078835795
91	0xbbdff19a	-0.006834221
92	0x3c2072b9	0.009792977
93	0xbcd0a94e	-0.025471356
94	0xbcd677ca	-0.026180167
95	0x3c8faf34	0.017539598
96	0x3bb638e0	0.0055609792
97	0x3c2d8fc1	0.010593356
98	0x3cf7c6e7	0.030246211
99	0x3c4fd9c2	0.012686195
100	0x3c19c5eb	0.009385566
101	0x3d41d5f2	0.047323175
102	0x3d1e7eaf	0.038695034
103	0xbc84b2bc	-0.016198508
104	0x3ce7b9c2	0.028286818
105	0x3b2be149	0.002622681
106	0x3cf17bea	0.029478032
107	0x3d1abc8a	0.03777746
108	0xbb1b69f9	-0.0023714288
109	0x3cacd45e	0.021097358
110	0x3b037e8c	0.0020064441
111	0xbb1d9d9f	-0.0024050248
112	0x3c958eb6	0.018256526
113	0x3b0c0c38	0.0021369588
114	0x3d0c2906	0.03421881
115	0xbd0ef906	-0.034905456
116	0x3c876f2c	0.016532503
117	0xbb9b7aad	-0.0047448487
118	0xbd29214c	-0.04129152
119	0xbd09d48d	-0.03364997
120	0xbcaecf94	-0.021339215
121	0xbcb65a5b	-0.022259882
122	0xbc985a6d	-0.018597806
123	0xbcfaa079	-0.030594097
124	0xbc129632	-0.008946942
125	0xba3c3d55	-0.000718077
126	0x3cc08534	0.023501016
127	0xbb5381bc	-0.0032273373

fc2.weight f4 [10, 128]
0	0x3d143918	0.03618726
1	0x3d8cc2f1	0.068731196
2	0xbd3c20b8	-0.04592964
3	0x3d912534	0.07087174
4	0x3b3dc84e	0.0028958502
5	0xbca0ec56	-0.019643944
6	0x3b916bb1	0.0044378866
7	0xbbf67fe2	-0.007522569
8	0x3daee77c	0.08540246
9	0x3db7be92	0.08971895
10	0x3d853f34	0.06506196
11	0xbd2e46c6	-0.042547964
12	0x3cf154da	0.029459406
13	0xbdf52674	-0.11970225
14	0xbe15e0b6	-0.14636502
15	0xbe291235	-0.16510852
16	0x3d169aa4	0.03676857
17	0xbbf74284	-0.007545771
18	0x3dc741ea	0.09729369
19	0xbd6eaca4	-0.05827011
20	0x3d6d262c	0.05789773
21	0x3db2e7c3	0.08735611
22	0xbdae3673	-0.08506479
23	0x3d6f64dd	0.0584458
24	0xbd17d913	-0.037072252
25	0xbda436d2	-0.08018269
26	0xbe306f8f	-0.17230056
27	0x3d81a92d	0.06331096
28	0xbe7706ed	-0.24123736
29	0x3d022619	0.031774614
30	0xbd96361f	-0.073345415
31	0xbc210a6d	-0.009829146
32	0xbc752470	-0.014962301
33	0x3de6551f	0.11246704
34	0x3db28dc2	0.087184444
35	0x3e0da114	0.13830978
36	0xbd1f4b7d	-0.03889035
37	0xbd8bf2b0	-0.06833398
38	0x3d0463ee	0.032321863
39	0xbe200bd7	-0.15629517
40	0xbd9526fb	-0.072828256
41	0x3d8b9b4c	0.0681673
42	0x3d39eec0	0.045393705
43	0xbcb170af	-0.021660177
44	0xbdf318f7	-0.11869996
45	0xbe3ffc1c	-0.18748516
46	0xbe399011	-0.18121363
47	0x3d560120	0.052247167
48	0x3d79a79a	0.060950853
49	0xbe1cba19	-0.15305366
50	0xbdc3262e	-0.095287666
51	0x3d92be40	0.071651936
52	0xbcc2ad3a	-0.023764241
53	0x3c82482b	0.015903553
54	0xbd87b4d9	-0.06626291
55	0xbd9d403d	-0.07678268
56	0x3df5e298	0.1200611
57	0x3d619d38	0.055081576
58	0x3d6aa102	0.057282455
59	0xbca551d6	-0.020180624
60	0xbe8d7940	-0.2763157
61	0xbc486156	-0.012230238
62	0x3dba4efc	0.09097096
63	0xbe260128	-0.16211379
64	0xbc99e372	-0.018785212
65	0x3be4db9c	0.0069841873
66	0x3d0ea8aa	0.03482882
67	0xbe6a6130	-0.22888637
68	0x3dcd2cd2	0.100183144
69	0xbcd93ddb	-0.026518753
70	0xbd0f4017	-0.03497323
71	0xbe029eb4	-0.12755853
72	0x3d3b8b02	0.045786865
73	0x3e261cb9	0.16221894
74	0xbe137534	-0.14400178
75	0x3d07f1fa	0.03318975
76	0x3ce0ec39	0.02745639
77	0xbccc6b12	-0.024953399
78	0xbd3b5bff	-0.04574203
79	0xbd0773f2	-0.03306956
80	0xbcb50cfa	-0.022100914
81	0x3d19902c	0.03749101
82	0x3d6b6ff0	0.0574798
83	0x3d9d4881	0.07679845
84	0xbcac8ab5	-0.021062234
85	0xbc3be06e	-0.011467082
86	0x3d8ad235	0.06778375
87	0x3d0b505b	0.03401218
88	0x3d608a46	0.054819368
89	0x3d75d571	0.060018007
90	0xbe30fda8	-0.17284262
91	0x3d3ce5bb	0.046117526
92	0x3e0a6a36	0.13517079
93	0x3c70bae3	0.014692995
94	0xbdc1a518	-0.09455317
95	0x3d287416	0.041126333
96	0xbc6980cb	-0.014251898
97	0x3ccc87db	0.024967125
98	0x3da6423b	0.08118101
99	0x3dc00b54	0.09377161
100	0xbe36c2cc	-0.17847747
101	0xbd987e04	-0.074459106
102	0x3e02da7b	0.12778656
103	0xbb26be88	-0.0025443155
104	0x3d228924	0.03968157
105	0x3da4476f	0.080214374
106	0x3dbdf882	0.09275915
107	0xbc042e24	-0.008067641
108	0x3c9f3fad	0.019439543
109	0xbde5a1e6	-0.1121252
110	0x3d911ad6	0.07085197
111	0xbcb93623	-0.022608822
112	0xbc6f00ba	-0.014587576
113	0x3d001be8	0.031276613
114	0x3c4f1e5d	0.0126415165
115	0xbdd11626	-0.102093026
116	0xbd5e68f3	-0.054299306
117	0xbd821a24	-0.06352642
118	0x3cacdc4a	0.021101136
119	0x3d3b4d0c	0.045727775
120	0x3d45ad5c	0.04826103
121	0x3cd1bc14	0.025602378
122	0xbcf349a5	-0.029698202
123	0xbd0e5590	-0.034749568
124	0xbd5fee76	-0.054670773
125	0xbdb2255d	-0.08698533
126	0x3d0c1549	0.034199987
127	0xbd2d61d7	-0.042329635
128	0xbc788d6e	-0.015170438
129	0xbcaf20b3	-0.021377897
130	0xbd6159c7	-0.05501726
131	0x3d107957	0.03527197
132	0xbce8cac8	-0.028417006
133	0xbe27cef3	-0.16387539
134	0xbd6c6546	-0.05771377
135	0xbe1877b6	-0.14889416
136	0x3cef2dde	0.029196676
137	0xbdba4cc6	-0.090966746
138	0xbe15dcf4	-0.14635068
139	0x3b867274	0.0041029993
140	0xbdbfa8bc	-0.093583554
141	0x3d06c4fa	0.032902695
142	0x3dc29055	0.095001854
143	0xbcecd10c	-0.028908275
144	0xbd1605b9	-0.03662655
145	0xbe1660a6	-0.14685306
146	0x3c063f3d	0.008193788
147	0x3d065b67	0.03280201
148	0xbdfc6bc3	-0.123252414
149	0xbd194b52	-0.037425347
150	0x3c94fa3d	0.01818573
151	0xbd6effbe	-0.058349364
152	0xbcab6f3f	-0.02092707
153	0x3c3e1fdc	0.011604276
154	0x3b1cbd66	0.0023916601
155	0x3d1b46bd	0.03790926
156	0x3d53da50	0.05172187
157	0xbe267ba7	-0.16258107
158	0x3b895d48	0.004192028
159	0x3d81a773	0.063307665
160	0x3dbd5f5f	0.09246706
161	0xbdd86580	-0.105662346
162	0xbe3b7b07	-0.1830865
163	0x3dcc1d67	0.099665456
164	0xbd1acb6a	-0.037791647
165	0xbd1ecd34	-0.038769916
166	0x3d9848c5	0.07435755
167	0x3d27c3e3	0.040958297
168	0x3ddf4410	0.10901654
169	0x3ccf02e7	0.025269939
170	0xbc4fe456	-0.012688717
171	0xbb3c76ef	-0.0028757413
172	0x3d6ec9bc	0.058297858
173	0x3d3deee4	0.046370402
174	0xbad16b82	-0.0015977474
175	0xbd2bc6fc	-0.041937813
176	0xbd860bac	-0.06545195
177	0x3de227f1	0.110427745
178	0x3d06888d	0.03284507
179	0xbd8e338d	-0.06943426
180	0x3dcb5590	0.09928429
181	0x3d144e4e	0.03620749
182	0xbd51d17f	-0.05122518
183	0xbd8f63d6	-0.07001464
184	0xbe147fbe	-0.14501855
185	0x3d664635	0.0562193
186	0xbd8d2a3e	-0.06892823
187	0x3df1267f	0.11774921
188	0x3d652dbe	0.055951826
189	0xbdc8a42d	-0.09796939
190	0xbcdfefb1	-0.027335973
191	0x3dbca6d8	0.092115104
192	0xbe24a10b	-0.16077058
193	0x3d86ee85	0.06588463
194	0xbcdb4905	-0.026768217
195	0x3d47dad6	0.048792683
196	0xbd871c85	-0.065972365
197	0xbda91317	-0.08255594
198	0xbda65f67	-0.08123665
199	0x3d8dbb13	0.06920447
200	0x3c2fa607	0.010720736
201	0x3e125506	0.14290246
202	0xbdbe9a69	-0.09306795
203	0xba4468f2	-0.0007492445
204	0xbd44c923	-0.04804338
205	0x3d0bf566	0.034169577
206	0x3d936e70	0.07198799
207	0xbd4a2be4	-0.049358264
208	0xbd91ee8e	-0.07125579
209	0x3d91dd06	0.07122235
210	0x3d822b6e	0.0635594
211	0xbde74efd	-0.11294363
212	0x3e03e206	0.1287919
213	0xbde1aa5f	-0.11018824
214	0x3e18f54a	0.1493732
215	0xbdcf00d8	-0.10107583
216	0x3d028af1	0.031870786
217	0xbc992cf8	-0.0186982
218	0x3c40fe06	0.011779314
219	0xbd4ed867	-0.050499346
220	0x3d1b0595	0.03784712
221	0x3c27a76a	0.010232786
222	0xbc4fd533	-0.012685108
223	0x3e06bd13	0.13158064
224	0xbca53271	-0.020165654
225	0xbdbef69d	-0.093243815
226	0x3d8a8763	0.06764104
227	0xbda08f3a	-0.07839818
228	0x3c694b8a	0.014239201
229	0x3d34e540	0.044163942
230	0x3dd45570	0.103678584
231	0xbdc480d1	-0.09594882
232	0x3da8c336	0.082403585
233	0xbd267d3a	-0.04064677
234	0x3d9adcec	0.07561669
235	0x3db92612	0.090404645
236	0x3d8256b5	0.06364194
237	0xbd16c2b0	-0.036806762
238	0x3a0d5f46	0.000539292
239	0xbbfdc437	-0.007744338
240	0xbd9b52a8	-0.07584125
241	0xbd8b78fe	-0.06810187
242	0xbd5e1d07	-0.0542269
243	0xbdb2dadd	-0.08733151
244	0xbda0895b	-0.078386985
245	0x3d8ea3be	0.06964825
246	0xbc8035d0	-0.01565066
247	0xbd8eb824	-0.06968716
248	0xbd1b7afd	-0.037959088
249	0xbd1b478c	-0.03791003
250	0xbd8e5338	-0.069494665
251	0xbdd73670	-0.1050843
252	0x3d0d2bbf	0.034465548
253	0xbd0cf6c5	-0.034415025
254	0x3d3af2d0	0.04564172
255	0xbd88448c	-0.06653699

fc2.bias f4 [10]
0	0xbc863f00	-0.016387463
1	0x3d9ba7df	0.07600378
2	0x3d35e5e1	0.044408683
3	0xbd8a0208	-0.06738669
4	0x3da54239	0.080692716
5	0x3d8398dd	0.06425641
6	0xbdc0567c	-0.093914956
7	0x3d8bc761	0.06825138
8	0x3d43b2fe	0.047778122
9	0xbd67b3f0	-0.056568086
